Model: "model_7"
__________________________________________________________________________________________________
Layer (type)                    Output Shape         Param #     Connected to                     
==================================================================================================
input_10 (InputLayer)           (None, 224, 224, 3)  0                                            
__________________________________________________________________________________________________
conv1_pad (ZeroPadding2D)       (None, 230, 230, 3)  0           input_10[0][0]                   
__________________________________________________________________________________________________
conv1 (Conv2D)                  (None, 112, 112, 64) 9472        conv1_pad[0][0]                  
__________________________________________________________________________________________________
bn_conv1 (BatchNormalization)   (None, 112, 112, 64) 256         conv1[0][0]                      
__________________________________________________________________________________________________
activation_442 (Activation)     (None, 112, 112, 64) 0           bn_conv1[0][0]                   
__________________________________________________________________________________________________
pool1_pad (ZeroPadding2D)       (None, 114, 114, 64) 0           activation_442[0][0]             
__________________________________________________________________________________________________
max_pooling2d_10 (MaxPooling2D) (None, 56, 56, 64)   0           pool1_pad[0][0]                  
__________________________________________________________________________________________________
res2a_branch2a (Conv2D)         (None, 56, 56, 64)   4160        max_pooling2d_10[0][0]           
__________________________________________________________________________________________________
bn2a_branch2a (BatchNormalizati (None, 56, 56, 64)   256         res2a_branch2a[0][0]             
__________________________________________________________________________________________________
activation_443 (Activation)     (None, 56, 56, 64)   0           bn2a_branch2a[0][0]              
__________________________________________________________________________________________________
res2a_branch2b (Conv2D)         (None, 56, 56, 64)   36928       activation_443[0][0]             
__________________________________________________________________________________________________
bn2a_branch2b (BatchNormalizati (None, 56, 56, 64)   256         res2a_branch2b[0][0]             
__________________________________________________________________________________________________
activation_444 (Activation)     (None, 56, 56, 64)   0           bn2a_branch2b[0][0]              
__________________________________________________________________________________________________
res2a_branch2c (Conv2D)         (None, 56, 56, 256)  16640       activation_444[0][0]             
__________________________________________________________________________________________________
res2a_branch1 (Conv2D)          (None, 56, 56, 256)  16640       max_pooling2d_10[0][0]           
__________________________________________________________________________________________________
bn2a_branch2c (BatchNormalizati (None, 56, 56, 256)  1024        res2a_branch2c[0][0]             
__________________________________________________________________________________________________
bn2a_branch1 (BatchNormalizatio (None, 56, 56, 256)  1024        res2a_branch1[0][0]              
__________________________________________________________________________________________________
add_145 (Add)                   (None, 56, 56, 256)  0           bn2a_branch2c[0][0]              
                                                                 bn2a_branch1[0][0]               
__________________________________________________________________________________________________
activation_445 (Activation)     (None, 56, 56, 256)  0           add_145[0][0]                    
__________________________________________________________________________________________________
res2b_branch2a (Conv2D)         (None, 56, 56, 64)   16448       activation_445[0][0]             
__________________________________________________________________________________________________
bn2b_branch2a (BatchNormalizati (None, 56, 56, 64)   256         res2b_branch2a[0][0]             
__________________________________________________________________________________________________
activation_446 (Activation)     (None, 56, 56, 64)   0           bn2b_branch2a[0][0]              
__________________________________________________________________________________________________
res2b_branch2b (Conv2D)         (None, 56, 56, 64)   36928       activation_446[0][0]             
__________________________________________________________________________________________________
bn2b_branch2b (BatchNormalizati (None, 56, 56, 64)   256         res2b_branch2b[0][0]             
__________________________________________________________________________________________________
activation_447 (Activation)     (None, 56, 56, 64)   0           bn2b_branch2b[0][0]              
__________________________________________________________________________________________________
res2b_branch2c (Conv2D)         (None, 56, 56, 256)  16640       activation_447[0][0]             
__________________________________________________________________________________________________
bn2b_branch2c (BatchNormalizati (None, 56, 56, 256)  1024        res2b_branch2c[0][0]             
__________________________________________________________________________________________________
add_146 (Add)                   (None, 56, 56, 256)  0           bn2b_branch2c[0][0]              
                                                                 activation_445[0][0]             
__________________________________________________________________________________________________
activation_448 (Activation)     (None, 56, 56, 256)  0           add_146[0][0]                    
__________________________________________________________________________________________________
res2c_branch2a (Conv2D)         (None, 56, 56, 64)   16448       activation_448[0][0]             
__________________________________________________________________________________________________
bn2c_branch2a (BatchNormalizati (None, 56, 56, 64)   256         res2c_branch2a[0][0]             
__________________________________________________________________________________________________
activation_449 (Activation)     (None, 56, 56, 64)   0           bn2c_branch2a[0][0]              
__________________________________________________________________________________________________
res2c_branch2b (Conv2D)         (None, 56, 56, 64)   36928       activation_449[0][0]             
__________________________________________________________________________________________________
bn2c_branch2b (BatchNormalizati (None, 56, 56, 64)   256         res2c_branch2b[0][0]             
__________________________________________________________________________________________________
activation_450 (Activation)     (None, 56, 56, 64)   0           bn2c_branch2b[0][0]              
__________________________________________________________________________________________________
res2c_branch2c (Conv2D)         (None, 56, 56, 256)  16640       activation_450[0][0]             
__________________________________________________________________________________________________
bn2c_branch2c (BatchNormalizati (None, 56, 56, 256)  1024        res2c_branch2c[0][0]             
__________________________________________________________________________________________________
add_147 (Add)                   (None, 56, 56, 256)  0           bn2c_branch2c[0][0]              
                                                                 activation_448[0][0]             
__________________________________________________________________________________________________
activation_451 (Activation)     (None, 56, 56, 256)  0           add_147[0][0]                    
__________________________________________________________________________________________________
res3a_branch2a (Conv2D)         (None, 28, 28, 128)  32896       activation_451[0][0]             
__________________________________________________________________________________________________
bn3a_branch2a (BatchNormalizati (None, 28, 28, 128)  512         res3a_branch2a[0][0]             
__________________________________________________________________________________________________
activation_452 (Activation)     (None, 28, 28, 128)  0           bn3a_branch2a[0][0]              
__________________________________________________________________________________________________
res3a_branch2b (Conv2D)         (None, 28, 28, 128)  147584      activation_452[0][0]             
__________________________________________________________________________________________________
bn3a_branch2b (BatchNormalizati (None, 28, 28, 128)  512         res3a_branch2b[0][0]             
__________________________________________________________________________________________________
activation_453 (Activation)     (None, 28, 28, 128)  0           bn3a_branch2b[0][0]              
__________________________________________________________________________________________________
res3a_branch2c (Conv2D)         (None, 28, 28, 512)  66048       activation_453[0][0]             
__________________________________________________________________________________________________
res3a_branch1 (Conv2D)          (None, 28, 28, 512)  131584      activation_451[0][0]             
__________________________________________________________________________________________________
bn3a_branch2c (BatchNormalizati (None, 28, 28, 512)  2048        res3a_branch2c[0][0]             
__________________________________________________________________________________________________
bn3a_branch1 (BatchNormalizatio (None, 28, 28, 512)  2048        res3a_branch1[0][0]              
__________________________________________________________________________________________________
add_148 (Add)                   (None, 28, 28, 512)  0           bn3a_branch2c[0][0]              
                                                                 bn3a_branch1[0][0]               
__________________________________________________________________________________________________
activation_454 (Activation)     (None, 28, 28, 512)  0           add_148[0][0]                    
__________________________________________________________________________________________________
res3b_branch2a (Conv2D)         (None, 28, 28, 128)  65664       activation_454[0][0]             
__________________________________________________________________________________________________
bn3b_branch2a (BatchNormalizati (None, 28, 28, 128)  512         res3b_branch2a[0][0]             
__________________________________________________________________________________________________
activation_455 (Activation)     (None, 28, 28, 128)  0           bn3b_branch2a[0][0]              
__________________________________________________________________________________________________
res3b_branch2b (Conv2D)         (None, 28, 28, 128)  147584      activation_455[0][0]             
__________________________________________________________________________________________________
bn3b_branch2b (BatchNormalizati (None, 28, 28, 128)  512         res3b_branch2b[0][0]             
__________________________________________________________________________________________________
activation_456 (Activation)     (None, 28, 28, 128)  0           bn3b_branch2b[0][0]              
__________________________________________________________________________________________________
res3b_branch2c (Conv2D)         (None, 28, 28, 512)  66048       activation_456[0][0]             
__________________________________________________________________________________________________
bn3b_branch2c (BatchNormalizati (None, 28, 28, 512)  2048        res3b_branch2c[0][0]             
__________________________________________________________________________________________________
add_149 (Add)                   (None, 28, 28, 512)  0           bn3b_branch2c[0][0]              
                                                                 activation_454[0][0]             
__________________________________________________________________________________________________
activation_457 (Activation)     (None, 28, 28, 512)  0           add_149[0][0]                    
__________________________________________________________________________________________________
res3c_branch2a (Conv2D)         (None, 28, 28, 128)  65664       activation_457[0][0]             
__________________________________________________________________________________________________
bn3c_branch2a (BatchNormalizati (None, 28, 28, 128)  512         res3c_branch2a[0][0]             
__________________________________________________________________________________________________
activation_458 (Activation)     (None, 28, 28, 128)  0           bn3c_branch2a[0][0]              
__________________________________________________________________________________________________
res3c_branch2b (Conv2D)         (None, 28, 28, 128)  147584      activation_458[0][0]             
__________________________________________________________________________________________________
bn3c_branch2b (BatchNormalizati (None, 28, 28, 128)  512         res3c_branch2b[0][0]             
__________________________________________________________________________________________________
activation_459 (Activation)     (None, 28, 28, 128)  0           bn3c_branch2b[0][0]              
__________________________________________________________________________________________________
res3c_branch2c (Conv2D)         (None, 28, 28, 512)  66048       activation_459[0][0]             
__________________________________________________________________________________________________
bn3c_branch2c (BatchNormalizati (None, 28, 28, 512)  2048        res3c_branch2c[0][0]             
__________________________________________________________________________________________________
add_150 (Add)                   (None, 28, 28, 512)  0           bn3c_branch2c[0][0]              
                                                                 activation_457[0][0]             
__________________________________________________________________________________________________
activation_460 (Activation)     (None, 28, 28, 512)  0           add_150[0][0]                    
__________________________________________________________________________________________________
res3d_branch2a (Conv2D)         (None, 28, 28, 128)  65664       activation_460[0][0]             
__________________________________________________________________________________________________
bn3d_branch2a (BatchNormalizati (None, 28, 28, 128)  512         res3d_branch2a[0][0]             
__________________________________________________________________________________________________
activation_461 (Activation)     (None, 28, 28, 128)  0           bn3d_branch2a[0][0]              
__________________________________________________________________________________________________
res3d_branch2b (Conv2D)         (None, 28, 28, 128)  147584      activation_461[0][0]             
__________________________________________________________________________________________________
bn3d_branch2b (BatchNormalizati (None, 28, 28, 128)  512         res3d_branch2b[0][0]             
__________________________________________________________________________________________________
activation_462 (Activation)     (None, 28, 28, 128)  0           bn3d_branch2b[0][0]              
__________________________________________________________________________________________________
res3d_branch2c (Conv2D)         (None, 28, 28, 512)  66048       activation_462[0][0]             
__________________________________________________________________________________________________
bn3d_branch2c (BatchNormalizati (None, 28, 28, 512)  2048        res3d_branch2c[0][0]             
__________________________________________________________________________________________________
add_151 (Add)                   (None, 28, 28, 512)  0           bn3d_branch2c[0][0]              
                                                                 activation_460[0][0]             
__________________________________________________________________________________________________
activation_463 (Activation)     (None, 28, 28, 512)  0           add_151[0][0]                    
__________________________________________________________________________________________________
res4a_branch2a (Conv2D)         (None, 14, 14, 256)  131328      activation_463[0][0]             
__________________________________________________________________________________________________
bn4a_branch2a (BatchNormalizati (None, 14, 14, 256)  1024        res4a_branch2a[0][0]             
__________________________________________________________________________________________________
activation_464 (Activation)     (None, 14, 14, 256)  0           bn4a_branch2a[0][0]              
__________________________________________________________________________________________________
res4a_branch2b (Conv2D)         (None, 14, 14, 256)  590080      activation_464[0][0]             
__________________________________________________________________________________________________
bn4a_branch2b (BatchNormalizati (None, 14, 14, 256)  1024        res4a_branch2b[0][0]             
__________________________________________________________________________________________________
activation_465 (Activation)     (None, 14, 14, 256)  0           bn4a_branch2b[0][0]              
__________________________________________________________________________________________________
res4a_branch2c (Conv2D)         (None, 14, 14, 1024) 263168      activation_465[0][0]             
__________________________________________________________________________________________________
res4a_branch1 (Conv2D)          (None, 14, 14, 1024) 525312      activation_463[0][0]             
__________________________________________________________________________________________________
bn4a_branch2c (BatchNormalizati (None, 14, 14, 1024) 4096        res4a_branch2c[0][0]             
__________________________________________________________________________________________________
bn4a_branch1 (BatchNormalizatio (None, 14, 14, 1024) 4096        res4a_branch1[0][0]              
__________________________________________________________________________________________________
add_152 (Add)                   (None, 14, 14, 1024) 0           bn4a_branch2c[0][0]              
                                                                 bn4a_branch1[0][0]               
__________________________________________________________________________________________________
activation_466 (Activation)     (None, 14, 14, 1024) 0           add_152[0][0]                    
__________________________________________________________________________________________________
res4b_branch2a (Conv2D)         (None, 14, 14, 256)  262400      activation_466[0][0]             
__________________________________________________________________________________________________
bn4b_branch2a (BatchNormalizati (None, 14, 14, 256)  1024        res4b_branch2a[0][0]             
__________________________________________________________________________________________________
activation_467 (Activation)     (None, 14, 14, 256)  0           bn4b_branch2a[0][0]              
__________________________________________________________________________________________________
res4b_branch2b (Conv2D)         (None, 14, 14, 256)  590080      activation_467[0][0]             
__________________________________________________________________________________________________
bn4b_branch2b (BatchNormalizati (None, 14, 14, 256)  1024        res4b_branch2b[0][0]             
__________________________________________________________________________________________________
activation_468 (Activation)     (None, 14, 14, 256)  0           bn4b_branch2b[0][0]              
__________________________________________________________________________________________________
res4b_branch2c (Conv2D)         (None, 14, 14, 1024) 263168      activation_468[0][0]             
__________________________________________________________________________________________________
bn4b_branch2c (BatchNormalizati (None, 14, 14, 1024) 4096        res4b_branch2c[0][0]             
__________________________________________________________________________________________________
add_153 (Add)                   (None, 14, 14, 1024) 0           bn4b_branch2c[0][0]              
                                                                 activation_466[0][0]             
__________________________________________________________________________________________________
activation_469 (Activation)     (None, 14, 14, 1024) 0           add_153[0][0]                    
__________________________________________________________________________________________________
res4c_branch2a (Conv2D)         (None, 14, 14, 256)  262400      activation_469[0][0]             
__________________________________________________________________________________________________
bn4c_branch2a (BatchNormalizati (None, 14, 14, 256)  1024        res4c_branch2a[0][0]             
__________________________________________________________________________________________________
activation_470 (Activation)     (None, 14, 14, 256)  0           bn4c_branch2a[0][0]              
__________________________________________________________________________________________________
res4c_branch2b (Conv2D)         (None, 14, 14, 256)  590080      activation_470[0][0]             
__________________________________________________________________________________________________
bn4c_branch2b (BatchNormalizati (None, 14, 14, 256)  1024        res4c_branch2b[0][0]             
__________________________________________________________________________________________________
activation_471 (Activation)     (None, 14, 14, 256)  0           bn4c_branch2b[0][0]              
__________________________________________________________________________________________________
res4c_branch2c (Conv2D)         (None, 14, 14, 1024) 263168      activation_471[0][0]             
__________________________________________________________________________________________________
bn4c_branch2c (BatchNormalizati (None, 14, 14, 1024) 4096        res4c_branch2c[0][0]             
__________________________________________________________________________________________________
add_154 (Add)                   (None, 14, 14, 1024) 0           bn4c_branch2c[0][0]              
                                                                 activation_469[0][0]             
__________________________________________________________________________________________________
activation_472 (Activation)     (None, 14, 14, 1024) 0           add_154[0][0]                    
__________________________________________________________________________________________________
res4d_branch2a (Conv2D)         (None, 14, 14, 256)  262400      activation_472[0][0]             
__________________________________________________________________________________________________
bn4d_branch2a (BatchNormalizati (None, 14, 14, 256)  1024        res4d_branch2a[0][0]             
__________________________________________________________________________________________________
activation_473 (Activation)     (None, 14, 14, 256)  0           bn4d_branch2a[0][0]              
__________________________________________________________________________________________________
res4d_branch2b (Conv2D)         (None, 14, 14, 256)  590080      activation_473[0][0]             
__________________________________________________________________________________________________
bn4d_branch2b (BatchNormalizati (None, 14, 14, 256)  1024        res4d_branch2b[0][0]             
__________________________________________________________________________________________________
activation_474 (Activation)     (None, 14, 14, 256)  0           bn4d_branch2b[0][0]              
__________________________________________________________________________________________________
res4d_branch2c (Conv2D)         (None, 14, 14, 1024) 263168      activation_474[0][0]             
__________________________________________________________________________________________________
bn4d_branch2c (BatchNormalizati (None, 14, 14, 1024) 4096        res4d_branch2c[0][0]             
__________________________________________________________________________________________________
add_155 (Add)                   (None, 14, 14, 1024) 0           bn4d_branch2c[0][0]              
                                                                 activation_472[0][0]             
__________________________________________________________________________________________________
activation_475 (Activation)     (None, 14, 14, 1024) 0           add_155[0][0]                    
__________________________________________________________________________________________________
res4e_branch2a (Conv2D)         (None, 14, 14, 256)  262400      activation_475[0][0]             
__________________________________________________________________________________________________
bn4e_branch2a (BatchNormalizati (None, 14, 14, 256)  1024        res4e_branch2a[0][0]             
__________________________________________________________________________________________________
activation_476 (Activation)     (None, 14, 14, 256)  0           bn4e_branch2a[0][0]              
__________________________________________________________________________________________________
res4e_branch2b (Conv2D)         (None, 14, 14, 256)  590080      activation_476[0][0]             
__________________________________________________________________________________________________
bn4e_branch2b (BatchNormalizati (None, 14, 14, 256)  1024        res4e_branch2b[0][0]             
__________________________________________________________________________________________________
activation_477 (Activation)     (None, 14, 14, 256)  0           bn4e_branch2b[0][0]              
__________________________________________________________________________________________________
res4e_branch2c (Conv2D)         (None, 14, 14, 1024) 263168      activation_477[0][0]             
__________________________________________________________________________________________________
bn4e_branch2c (BatchNormalizati (None, 14, 14, 1024) 4096        res4e_branch2c[0][0]             
__________________________________________________________________________________________________
add_156 (Add)                   (None, 14, 14, 1024) 0           bn4e_branch2c[0][0]              
                                                                 activation_475[0][0]             
__________________________________________________________________________________________________
activation_478 (Activation)     (None, 14, 14, 1024) 0           add_156[0][0]                    
__________________________________________________________________________________________________
res4f_branch2a (Conv2D)         (None, 14, 14, 256)  262400      activation_478[0][0]             
__________________________________________________________________________________________________
bn4f_branch2a (BatchNormalizati (None, 14, 14, 256)  1024        res4f_branch2a[0][0]             
__________________________________________________________________________________________________
activation_479 (Activation)     (None, 14, 14, 256)  0           bn4f_branch2a[0][0]              
__________________________________________________________________________________________________
res4f_branch2b (Conv2D)         (None, 14, 14, 256)  590080      activation_479[0][0]             
__________________________________________________________________________________________________
bn4f_branch2b (BatchNormalizati (None, 14, 14, 256)  1024        res4f_branch2b[0][0]             
__________________________________________________________________________________________________
activation_480 (Activation)     (None, 14, 14, 256)  0           bn4f_branch2b[0][0]              
__________________________________________________________________________________________________
res4f_branch2c (Conv2D)         (None, 14, 14, 1024) 263168      activation_480[0][0]             
__________________________________________________________________________________________________
bn4f_branch2c (BatchNormalizati (None, 14, 14, 1024) 4096        res4f_branch2c[0][0]             
__________________________________________________________________________________________________
add_157 (Add)                   (None, 14, 14, 1024) 0           bn4f_branch2c[0][0]              
                                                                 activation_478[0][0]             
__________________________________________________________________________________________________
activation_481 (Activation)     (None, 14, 14, 1024) 0           add_157[0][0]                    
__________________________________________________________________________________________________
res5a_branch2a (Conv2D)         (None, 7, 7, 512)    524800      activation_481[0][0]             
__________________________________________________________________________________________________
bn5a_branch2a (BatchNormalizati (None, 7, 7, 512)    2048        res5a_branch2a[0][0]             
__________________________________________________________________________________________________
activation_482 (Activation)     (None, 7, 7, 512)    0           bn5a_branch2a[0][0]              
__________________________________________________________________________________________________
res5a_branch2b (Conv2D)         (None, 7, 7, 512)    2359808     activation_482[0][0]             
__________________________________________________________________________________________________
bn5a_branch2b (BatchNormalizati (None, 7, 7, 512)    2048        res5a_branch2b[0][0]             
__________________________________________________________________________________________________
activation_483 (Activation)     (None, 7, 7, 512)    0           bn5a_branch2b[0][0]              
__________________________________________________________________________________________________
res5a_branch2c (Conv2D)         (None, 7, 7, 2048)   1050624     activation_483[0][0]             
__________________________________________________________________________________________________
res5a_branch1 (Conv2D)          (None, 7, 7, 2048)   2099200     activation_481[0][0]             
__________________________________________________________________________________________________
bn5a_branch2c (BatchNormalizati (None, 7, 7, 2048)   8192        res5a_branch2c[0][0]             
__________________________________________________________________________________________________
bn5a_branch1 (BatchNormalizatio (None, 7, 7, 2048)   8192        res5a_branch1[0][0]              
__________________________________________________________________________________________________
add_158 (Add)                   (None, 7, 7, 2048)   0           bn5a_branch2c[0][0]              
                                                                 bn5a_branch1[0][0]               
__________________________________________________________________________________________________
activation_484 (Activation)     (None, 7, 7, 2048)   0           add_158[0][0]                    
__________________________________________________________________________________________________
res5b_branch2a (Conv2D)         (None, 7, 7, 512)    1049088     activation_484[0][0]             
__________________________________________________________________________________________________
bn5b_branch2a (BatchNormalizati (None, 7, 7, 512)    2048        res5b_branch2a[0][0]             
__________________________________________________________________________________________________
activation_485 (Activation)     (None, 7, 7, 512)    0           bn5b_branch2a[0][0]              
__________________________________________________________________________________________________
res5b_branch2b (Conv2D)         (None, 7, 7, 512)    2359808     activation_485[0][0]             
__________________________________________________________________________________________________
bn5b_branch2b (BatchNormalizati (None, 7, 7, 512)    2048        res5b_branch2b[0][0]             
__________________________________________________________________________________________________
activation_486 (Activation)     (None, 7, 7, 512)    0           bn5b_branch2b[0][0]              
__________________________________________________________________________________________________
res5b_branch2c (Conv2D)         (None, 7, 7, 2048)   1050624     activation_486[0][0]             
__________________________________________________________________________________________________
bn5b_branch2c (BatchNormalizati (None, 7, 7, 2048)   8192        res5b_branch2c[0][0]             
__________________________________________________________________________________________________
add_159 (Add)                   (None, 7, 7, 2048)   0           bn5b_branch2c[0][0]              
                                                                 activation_484[0][0]             
__________________________________________________________________________________________________
activation_487 (Activation)     (None, 7, 7, 2048)   0           add_159[0][0]                    
__________________________________________________________________________________________________
res5c_branch2a (Conv2D)         (None, 7, 7, 512)    1049088     activation_487[0][0]             
__________________________________________________________________________________________________
bn5c_branch2a (BatchNormalizati (None, 7, 7, 512)    2048        res5c_branch2a[0][0]             
__________________________________________________________________________________________________
activation_488 (Activation)     (None, 7, 7, 512)    0           bn5c_branch2a[0][0]              
__________________________________________________________________________________________________
res5c_branch2b (Conv2D)         (None, 7, 7, 512)    2359808     activation_488[0][0]             
__________________________________________________________________________________________________
bn5c_branch2b (BatchNormalizati (None, 7, 7, 512)    2048        res5c_branch2b[0][0]             
__________________________________________________________________________________________________
activation_489 (Activation)     (None, 7, 7, 512)    0           bn5c_branch2b[0][0]              
__________________________________________________________________________________________________
res5c_branch2c (Conv2D)         (None, 7, 7, 2048)   1050624     activation_489[0][0]             
__________________________________________________________________________________________________
bn5c_branch2c (BatchNormalizati (None, 7, 7, 2048)   8192        res5c_branch2c[0][0]             
__________________________________________________________________________________________________
add_160 (Add)                   (None, 7, 7, 2048)   0           bn5c_branch2c[0][0]              
                                                                 activation_487[0][0]             
__________________________________________________________________________________________________
activation_490 (Activation)     (None, 7, 7, 2048)   0           add_160[0][0]                    
__________________________________________________________________________________________________
flatten (Flatten)               (None, 100352)       0           activation_490[0][0]             
__________________________________________________________________________________________________
dense_103 (Dense)               (None, 1024)         102761472   flatten[0][0]                    
__________________________________________________________________________________________________
dropout_81 (Dropout)            (None, 1024)         0           dense_103[0][0]                  
__________________________________________________________________________________________________
dropout_82 (Dropout)            (None, 1024)         0           dense_103[0][0]                  
__________________________________________________________________________________________________
dropout_83 (Dropout)            (None, 1024)         0           dense_103[0][0]                  
__________________________________________________________________________________________________
dropout_84 (Dropout)            (None, 1024)         0           dense_103[0][0]                  
__________________________________________________________________________________________________
dropout_85 (Dropout)            (None, 1024)         0           dense_103[0][0]                  
__________________________________________________________________________________________________
dropout_86 (Dropout)            (None, 1024)         0           dense_103[0][0]                  
__________________________________________________________________________________________________
dropout_88 (Dropout)            (None, 1024)         0           dense_103[0][0]                  
__________________________________________________________________________________________________
dropout_87 (Dropout)            (None, 1024)         0           dense_103[0][0]                  
__________________________________________________________________________________________________
dense_104 (Dense)               (None, 128)          131200      dropout_81[0][0]                 
__________________________________________________________________________________________________
dense_106 (Dense)               (None, 128)          131200      dropout_82[0][0]                 
__________________________________________________________________________________________________
dense_108 (Dense)               (None, 128)          131200      dropout_83[0][0]                 
__________________________________________________________________________________________________
dense_110 (Dense)               (None, 128)          131200      dropout_84[0][0]                 
__________________________________________________________________________________________________
dense_112 (Dense)               (None, 128)          131200      dropout_85[0][0]                 
__________________________________________________________________________________________________
dense_114 (Dense)               (None, 128)          131200      dropout_86[0][0]                 
__________________________________________________________________________________________________
dense_118 (Dense)               (None, 128)          131200      dropout_88[0][0]                 
__________________________________________________________________________________________________
dense_116 (Dense)               (None, 128)          131200      dropout_87[0][0]                 
__________________________________________________________________________________________________
dense_105 (Dense)               (None, 128)          16512       dense_104[0][0]                  
__________________________________________________________________________________________________
dense_107 (Dense)               (None, 128)          16512       dense_106[0][0]                  
__________________________________________________________________________________________________
dense_109 (Dense)               (None, 128)          16512       dense_108[0][0]                  
__________________________________________________________________________________________________
dense_111 (Dense)               (None, 128)          16512       dense_110[0][0]                  
__________________________________________________________________________________________________
dense_113 (Dense)               (None, 128)          16512       dense_112[0][0]                  
__________________________________________________________________________________________________
dense_115 (Dense)               (None, 128)          16512       dense_114[0][0]                  
__________________________________________________________________________________________________
dense_119 (Dense)               (None, 128)          16512       dense_118[0][0]                  
__________________________________________________________________________________________________
dense_117 (Dense)               (None, 128)          16512       dense_116[0][0]                  
__________________________________________________________________________________________________
gender_output (Dense)           (None, 2)            258         dense_105[0][0]                  
__________________________________________________________________________________________________
image_quality_output (Dense)    (None, 3)            387         dense_107[0][0]                  
__________________________________________________________________________________________________
age_output (Dense)              (None, 5)            645         dense_109[0][0]                  
__________________________________________________________________________________________________
weight_output (Dense)           (None, 4)            516         dense_111[0][0]                  
__________________________________________________________________________________________________
bag_output (Dense)              (None, 3)            387         dense_113[0][0]                  
__________________________________________________________________________________________________
footwear_output (Dense)         (None, 3)            387         dense_115[0][0]                  
__________________________________________________________________________________________________
pose_output (Dense)             (None, 3)            387         dense_119[0][0]                  
__________________________________________________________________________________________________
emotion_output (Dense)          (None, 4)            516         dense_117[0][0]                  
==================================================================================================
Total params: 127,534,363
Trainable params: 103,946,651
Non-trainable params: 23,587,712